…
To enable them in other operations, rebuild TensorFlow with the appropriate compiler flags.
2025-07-28 00:39:40.996474: I tensorflow/core/common_runtime/process_util.cc:146] Creating new thread pool with default inter op setting: 2. Tune using inter_op_parallelism_threads for best performance.
2025-07-28 00:39:41 | INFO | __main__:train:164 - LSTM Model Architecture:
Model: "sequential"
_________________________________________________________________
 Layer (type)                Output Shape              Param #
=================================================================
 lstm (LSTM)                 (None, 50, 64)            17408

 dropout (Dropout)           (None, 50, 64)            0

 lstm_1 (LSTM)               (None, 50, 64)            33024

 dropout_1 (Dropout)         (None, 50, 64)            0

 lstm_2 (LSTM)               (None, 64)                33024

 dropout_2 (Dropout)         (None, 64)                0

 dense (Dense)               (None, 32)                2080

 dropout_3 (Dropout)         (None, 32)                0

 dense_1 (Dense)             (None, 3)                 99

=================================================================
Total params: 85,635
Trainable params: 85,635
Non-trainable params: 0
_________________________________________________________________
Epoch 1/100
40/40 [==============================] - 6s 66ms/step - loss: 0.0607 - mae: 0.1583 - val_loss: 0.0076 - val_mae: 0.0724 - lr: 0.0010
Epoch 2/100
40/40 [==============================] - 2s 44ms/step - loss: 0.0546 - mae: 0.1395 - val_loss: 0.0046 - val_mae: 0.0514 - lr: 0.0010
…
